Model: "model_1"
_________________________________________________________________
Layer (type)                 Output Shape              Param #   
=================================================================
input_1 (InputLayer)         (None, 16, 16, 3)         0         
_________________________________________________________________
conv2d_1 (Conv2D)            (None, 8, 8, 64)          9472      
_________________________________________________________________
conv2d_2 (Conv2D)            (None, 4, 4, 32)          51232     
_________________________________________________________________
conv2d_3 (Conv2D)            (None, 4, 2, 16)          528       
_________________________________________________________________
conv2d_4 (Conv2D)            (None, 4, 2, 8)           1160      
_________________________________________________________________
conv2d_5 (Conv2D)            (None, 4, 2, 3)           219       
_________________________________________________________________
conv2d_6 (Conv2D)            (None, 4, 2, 3)           84        
_________________________________________________________________
conv2d_7 (Conv2D)            (None, 4, 2, 8)           224       
_________________________________________________________________
conv2d_transpose_1 (Conv2DTr (None, 4, 4, 16)          144       
_________________________________________________________________
conv2d_transpose_2 (Conv2DTr (None, 8, 8, 32)          12832     
_________________________________________________________________
conv2d_transpose_3 (Conv2DTr (None, 16, 16, 64)        100416    
_________________________________________________________________
conv2d_8 (Conv2D)            (None, 16, 16, 3)         195       
=================================================================
Total params: 176,506
Trainable params: 176,506
Non-trainable params: 0
_________________________________________________________________
Epoch 1/1
117000/117000 [==============================] - 65s 552us/step - loss: 0.0101
Model: "model_2"
_________________________________________________________________
Layer (type)                 Output Shape              Param #   
=================================================================
input_2 (InputLayer)         (None, 16, 16, 3)         0         
_________________________________________________________________
conv2d_9 (Conv2D)            (None, 8, 8, 64)          9472      
_________________________________________________________________
conv2d_10 (Conv2D)           (None, 4, 4, 32)          51232     
_________________________________________________________________
conv2d_11 (Conv2D)           (None, 4, 4, 16)          528       
_________________________________________________________________
conv2d_12 (Conv2D)           (None, 4, 4, 8)           1160      
_________________________________________________________________
conv2d_13 (Conv2D)           (None, 4, 4, 3)           219       
_________________________________________________________________
conv2d_14 (Conv2D)           (None, 4, 4, 3)           84        
_________________________________________________________________
conv2d_15 (Conv2D)           (None, 4, 4, 8)           224       
_________________________________________________________________
conv2d_16 (Conv2D)           (None, 4, 4, 16)          144       
_________________________________________________________________
conv2d_transpose_4 (Conv2DTr (None, 8, 8, 32)          12832     
_________________________________________________________________
conv2d_transpose_5 (Conv2DTr (None, 16, 16, 64)        100416    
_________________________________________________________________
conv2d_17 (Conv2D)           (None, 16, 16, 3)         195       
=================================================================
Total params: 176,506
Trainable params: 176,506
Non-trainable params: 0
_________________________________________________________________
Epoch 1/1
117000/117000 [==============================] - 64s 550us/step - loss: 0.0068
Model: "model_3"
_________________________________________________________________
Layer (type)                 Output Shape              Param #   
=================================================================
input_3 (InputLayer)         (None, 16, 16, 3)         0         
_________________________________________________________________
conv2d_18 (Conv2D)           (None, 8, 8, 64)          9472      
_________________________________________________________________
conv2d_19 (Conv2D)           (None, 8, 4, 32)          51232     
_________________________________________________________________
conv2d_20 (Conv2D)           (None, 8, 4, 16)          528       
_________________________________________________________________
conv2d_21 (Conv2D)           (None, 8, 4, 8)           1160      
_________________________________________________________________
conv2d_22 (Conv2D)           (None, 8, 4, 3)           219       
_________________________________________________________________
conv2d_23 (Conv2D)           (None, 8, 4, 3)           84        
_________________________________________________________________
conv2d_24 (Conv2D)           (None, 8, 4, 8)           224       
_________________________________________________________________
conv2d_25 (Conv2D)           (None, 8, 4, 16)          144       
_________________________________________________________________
conv2d_transpose_6 (Conv2DTr (None, 8, 8, 32)          12832     
_________________________________________________________________
conv2d_transpose_7 (Conv2DTr (None, 16, 16, 64)        100416    
_________________________________________________________________
conv2d_26 (Conv2D)           (None, 16, 16, 3)         195       
=================================================================
Total params: 176,506
Trainable params: 176,506
Non-trainable params: 0
_________________________________________________________________
Epoch 1/1
117000/117000 [==============================] - 71s 604us/step - loss: 0.0050
Model: "model_4"
_________________________________________________________________
Layer (type)                 Output Shape              Param #   
=================================================================
input_4 (InputLayer)         (None, 16, 16, 3)         0         
_________________________________________________________________
conv2d_27 (Conv2D)           (None, 8, 8, 64)          9472      
_________________________________________________________________
conv2d_28 (Conv2D)           (None, 8, 8, 32)          51232     
_________________________________________________________________
conv2d_29 (Conv2D)           (None, 8, 8, 16)          528       
_________________________________________________________________
conv2d_30 (Conv2D)           (None, 8, 8, 8)           1160      
_________________________________________________________________
conv2d_31 (Conv2D)           (None, 8, 8, 3)           219       
_________________________________________________________________
conv2d_32 (Conv2D)           (None, 8, 8, 3)           84        
_________________________________________________________________
conv2d_33 (Conv2D)           (None, 8, 8, 8)           224       
_________________________________________________________________
conv2d_34 (Conv2D)           (None, 8, 8, 16)          144       
_________________________________________________________________
conv2d_35 (Conv2D)           (None, 8, 8, 32)          12832     
_________________________________________________________________
conv2d_transpose_8 (Conv2DTr (None, 16, 16, 64)        100416    
_________________________________________________________________
conv2d_36 (Conv2D)           (None, 16, 16, 3)         195       
=================================================================
Total params: 176,506
Trainable params: 176,506
Non-trainable params: 0
_________________________________________________________________
Epoch 1/1
117000/117000 [==============================] - 65s 557us/step - loss: 0.0051
Model: "model_5"
_________________________________________________________________
Layer (type)                 Output Shape              Param #   
=================================================================
input_5 (InputLayer)         (None, 16, 16, 3)         0         
_________________________________________________________________
conv2d_37 (Conv2D)           (None, 16, 8, 64)         9472      
_________________________________________________________________
conv2d_38 (Conv2D)           (None, 16, 8, 32)         51232     
_________________________________________________________________
conv2d_39 (Conv2D)           (None, 16, 8, 16)         528       
_________________________________________________________________
conv2d_40 (Conv2D)           (None, 16, 8, 8)          1160      
_________________________________________________________________
conv2d_41 (Conv2D)           (None, 16, 8, 3)          219       
_________________________________________________________________
conv2d_42 (Conv2D)           (None, 16, 8, 3)          84        
_________________________________________________________________
conv2d_43 (Conv2D)           (None, 16, 8, 8)          224       
_________________________________________________________________
conv2d_44 (Conv2D)           (None, 16, 8, 16)         144       
_________________________________________________________________
conv2d_45 (Conv2D)           (None, 16, 8, 32)         12832     
_________________________________________________________________
conv2d_transpose_9 (Conv2DTr (None, 16, 16, 64)        100416    
_________________________________________________________________
conv2d_46 (Conv2D)           (None, 16, 16, 3)         195       
=================================================================
Total params: 176,506
Trainable params: 176,506
Non-trainable params: 0
_________________________________________________________________
Epoch 1/1
117000/117000 [==============================] - 81s 692us/step - loss: 0.0029